model.pth (torch, 242368 bytes, 25 tensors)

encoder.conv1.weight f4 [24, 2, 5, 5]
0	0x3df7c1d0	0.12097514
1	0x3d1a60e6	0.037690066
2	0xbc841937	-0.016125305
3	0x3d29417e	0.041322224
4	0xbdfbbb57	-0.122915916
5	0xbd92aecc	-0.07162246
6	0xbdfb99b4	-0.12285176
7	0x3df35657	0.118817024
8	0x3da3acb9	0.079919286
9	0x3de277cb	0.11058005
10	0xbde3f10b	-0.1112996
11	0x3de6aad8	0.112630546
12	0x3d8ed320	0.06973863
13	0x3df32801	0.118728645
14	0xbcba94fb	-0.022776118
15	0x3c20cc12	0.009814279
16	0xbe0449fd	-0.1291885
17	0xbd27253f	-0.040807005
18	0xbdaf15e3	-0.085490964
19	0xbdf01f10	-0.11724675
20	0x3dfc4411	0.1231767
21	0x3d9d92b5	0.07693998
22	0x3d9b0910	0.07570088
23	0x3d74fcbf	0.05981135
24	0x3d0a572d	0.033774544
25	0x3d945a14	0.072437435
26	0xbc7f321e	-0.015575914
27	0x3e1aa462	0.1510177
28	0x3e03cfb3	0.128722
29	0x3c81756c	0.015803061
30	0xbc575d61	-0.013144822
31	0xbdc4378c	-0.09580907
32	0xbc651fd4	-0.013984639
33	0x3d6ad6eb	0.057333868
34	0x3c0b72aa	0.008511225
35	0xbcf86402	-0.030321125
36	0xbd428fc6	-0.047500394
37	0x3d86368e	0.06553374
38	0xbdb9e37b	-0.090765916
39	0xbd840b95	-0.064475216
40	0xbdd2cefe	-0.10293387
41	0x3d5a2a4c	0.053262994
42	0x3c03ce51	0.008044795
43	0x3d9a6ee5	0.07540683
44	0x3df1a310	0.1179868
45	0xbdace2bb	-0.08441683
46	0x3dad3f40	0.084593296
47	0x3d838d04	0.06423381
48	0x3cf8c93c	0.030369394
49	0xbd239d75	-0.039945085
50	0xbde492b8	-0.11160797
51	0x3cea94ec	0.028635465
52	0x3c489453	0.0122423945
53	0x3cb7d883	0.022442108
54	0x3d8b6ad7	0.068074875
55	0x3c92110d	0.017830396
56	0xbe05ca21	-0.13065387
57	0x3cd4a583	0.025957828
58	0xbd5b4efb	-0.05354212
59	0x3c918439	0.017763244
60	0xbdde12e5	-0.108434476
61	0xbde9c64b	-0.114147745
62	0xbdd18584	-0.10230544
63	0x3debcd78	0.115137994
64	0x3e1b3036	0.1515511
65	0xbd70c52d	-0.05878179
66	0x3df7e938	0.1210503
67	0x3cb2323b	0.021752467
68	0xbdbd5a14	-0.09245697
69	0x3e148d8d	0.14507122
70	0x3e0c30d9	0.13690509
71	0xbc8bb20d	-0.017052675
72	0x3ddc1f81	0.107481964
73	0xbc0955c1	-0.008382262
74	0x3de4bf40	0.111692905
75	0xbbf1a302	-0.0073741684
76	0xbb93381b	-0.0044927723
77	0x3d4baa5d	0.049723018
78	0x3df29f33	0.11846771
79	0x3d448884	0.047981754
80	0xbcc5047c	-0.02404999
81	0x3d8ed12b	0.069734894
82	0x3dd7e772	0.105421916
83	0x3df02a24	0.11726788
84	0xbdb65cd4	-0.08904424
85	0xbe0c2c2a	-0.13688722
86	0xbd8f49b1	-0.069964774
87	0xbc99ee5f	-0.018790422
88	0xbd1ff11a	-0.03904829
89	0xbdd24ea7	-0.10268908
90	0x3d6c2f93	0.057662558
91	0x3dc0e0ef	0.09417903
92	0x3e07aec3	0.1325026
93	0xbdffd652	-0.1249205
94	0x3d798441	0.060917143
95	0x3e04cc4b	0.12968557
96	0x3df83d01	0.121210106
97	0xbe0d7bb4	-0.1381672
98	0xbcdc29db	-0.026875427
99	0xbd602f1e	-0.054732434
100	0x3ddbcb3a	0.10732122
101	0xbccd686e	-0.02507421
102	0x3e140b42	0.1445742
103	0xbdb147c9	-0.0865627
104	0x3d2aee62	0.041731246
105	0xbda2f7ff	-0.07957458
106	0x3dfa7795	0.1222984
107	0xbd4ce806	-0.050025962
108	0xbdd1b9e1	-0.10240532
109	0x3de7a74b	0.113112055
110	0xbd6cc201	-0.057802204
111	0xbd9d601a	-0.076843455
112	0xbdb82eb3	-0.08993282
113	0xbe12714b	-0.1430103
114	0xbd832a78	-0.06404585
115	0xbc47a6e5	-0.012185787
116	0xbe0198c2	-0.12655929
117	0xbe29eef0	-0.16595054
118	0xbdf09c59	-0.11748571
119	0xbe05bcb3	-0.13060264
120	0xbccf7b2d	-0.02532729
121	0x3cab2b00	0.020894527
122	0x3d37a718	0.044837087
123	0xba833d1b	-0.0010012718
124	0xbd9f0ed9	-0.07766504
125	0xbda245f6	-0.079235
126	0x3dde6601	0.108592995
127	0xbe0589df	-0.13040875
128	0xbdf414ef	-0.11918055
129	0xbdb3fbe5	-0.087882794
130	0xbd6ec313	-0.058291506
131	0xbb0a3744	-0.002109007
132	0x3d6e6db0	0.058210075
133	0xbd15d7c8	-0.03658274
134	0xbdcbd6b4	-0.09953061
135	0x3d99c30d	0.07507906
136	0x3d9327f6	0.07185356
137	0xb963e37a	-0.00021733149
138	0x3de58700	0.1120739
139	0x3d8f2a7e	0.069905266
140	0xbde11111	-0.10989583
141	0x3d182b50	0.03715068
142	0x3c579968	0.0131591335
143	0x3d2c4b83	0.0420642
144	0x3ca2d0e0	0.01987499
145	0xbdaa8bcc	-0.083274454
146	0xbde2984b	-0.11064204
147	0xbdd54a27	-0.10414534
148	0x3d91de99	0.07122535
149	0xbda92098	-0.0825817
150	0x3e18b29e	0.14911887
151	0x3d545a7f	0.051844116
152	0x3cb1541e	0.021646556
153	0x3d000a96	0.031260096
154	0x3dc2e916	0.09517114
155	0x3df2827c	0.11841294
156	0xbc9d3ac0	-0.019193053
157	0xbdc36035	-0.095398344
158	0x3daaba69	0.08336336
159	0x3d3ae9b9	0.04563305
160	0xbd369cf4	-0.044583276
161	0xbdebdd49	-0.11516816
162	0x3cedbe75	0.029021481
163	0xbdbe2a83	-0.09285452
164	0x3e1f61bd	0.15564628
165	0xbe018b55	-0.12650807
166	0xbd3796c4	-0.044821516
167	0xbd01a06b	-0.031647127
168	0x3e2367ef	0.15957616
169	0x3e2248bb	0.15848057
170	0x3dbf32df	0.09335875
171	0xbe055019	-0.13018836
172	0xbd6e8c4d	-0.05823927
173	0x3d663298	0.056200594
174	0x3d8ebc7d	0.06969545
175	0x3b904f07	0.004403952
176	0xbcdd8a4d	-0.027043486
177	0x3dae49fa	0.08510204
178	0x3cd9d0fd	0.026588911
179	0xbd18c59b	-0.037297826
180	0xbd90591d	-0.07048247
181	0xbd7a3584	-0.061086193
182	0x3d8c3f8c	0.06848058
183	0x3dc495b7	0.09598868
184	0xbda8b4da	-0.0823762
185	0x3cb346b4	0.0218843
186	0xbda96160	-0.08270526
187	0x3d083c69	0.033260737
188	0xbc89814e	-0.01678529
189	0x3d3602f0	0.044436395
190	0xbd1a90c7	-0.037735727
191	0x3daa1344	0.08304456
192	0xbbd353f2	-0.006449216
193	0xbde7c711	-0.11317266
194	0x3dc8c7e8	0.09803754
195	0x3cb6f0e6	0.022331666
196	0x3d163302	0.03666974
197	0xbcca73f0	-0.024713486
198	0x3d376671	0.04477543
199	0xbdab4c8c	-0.083642095
200	0xbe0dac31	-0.13835217
201	0x3db4b003	0.08822634
202	0xbd934c1c	-0.07192251
203	0xbccbf295	-0.024895946
204	0x3de57124	0.112032205
205	0x3da0db3e	0.07854317
206	0xbdaf5bf7	-0.08562463
207	0x3e0fc2ea	0.14039198
208	0xbcc80d98	-0.024420545
209	0xbdf5a55e	-0.11994432
210	0xbd18a341	-0.037265066
211	0x3e028a42	0.12748054
212	0x3ca2c820	0.019870818
213	0xbd40a646	-0.04703357
214	0xbe09ea96	-0.13468394
215	0xbdd8e334	-0.105902106
216	0x3da5e8cb	0.08101042
217	0x3e151932	0.14560392
218	0xbe0b9abc	-0.13633245
219	0xbbc1ab00	-0.0059102774
220	0x3d8c78c8	0.06858975
221	0x3e26769f	0.16256188
222	0x3e087ec3	0.13329606
223	0xbdf4cecf	-0.11953508
224	0xbd42db3d	-0.047572363
225	0xbcd6cf61	-0.026221933
226	0xbd8ff985	-0.07030014
227	0x3dcea486	0.10089974
228	0xbd077acb	-0.03307609
229	0x3c8f751b	0.017511895
230	0xbd1ef3fd	-0.038806904
231	0xbdfd13d3	-0.12357297
232	0x3c824f5b	0.01590698
233	0xbe108449	-0.14112963
234	0x3d5fd1c2	0.0546434
235	0xbd9a474d	-0.07533131
236	0x3de8dff5	0.113708414
237	0x3d22fa03	0.03978921
238	0xbe15ac91	-0.1461661
239	0x3d22c66d	0.039740015
240	0xbd91bd91	-0.07116235
241	0xbd3635d9	-0.044484947
242	0xbd2b04df	-0.041752692
243	0xbd8cfb8d	-0.06883917
244	0x3c31e858	0.010858618
245	0xbdae9294	-0.08524051
246	0x3dc13843	0.09434559
247	0x3d6b0446	0.057377122
248	0xbbced592	-0.0063120807
249	0xbcb88266	-0.022523116
250	0x3dfca884	0.12336829
251	0xbd896f3e	-0.06710671
252	0xbe078ee4	-0.13238102
253	0x3d8fb67a	0.070172265
254	0xbe0116e5	-0.1260639
255	0x3e0da164	0.13831097

encoder.bn1.weight f4 [24]
0	0x3f7cf033	0.98804015
1	0x3f7f037c	0.9961469
2	0x3f7e7cb6	0.99409044
3	0x3f81a5e1	1.0128747
4	0x3f814106	1.0097969
5	0x3f7c7919	0.9862228
6	0x3f7dbdb9	0.9911762
7	0x3f7f2aa7	0.9967446
8	0x3f82b283	1.0210727
9	0x3f7e2773	0.99278945
10	0x3f811d69	1.00871
11	0x3f83b703	1.0290226
12	0x3f810cd7	1.0082043
13	0x3f81c0bb	1.0136942
14	0x3f807ab7	1.003745
15	0x3f80970e	1.0046098
16	0x3f7f829c	0.9980867
17	0x3f7cfc50	0.988225
18	0x3f8005be	1.0001752
19	0x3f7da938	0.9908633
20	0x3f801b0f	1.0008258
21	0x3f804ca8	1.0023394
22	0x3f801352	1.0005896
23	0x3f7ebf84	0.9951098

encoder.bn1.bias f4 [24]
0	0xbcc583e6	-0.024110746
1	0x3c896032	0.016769502
2	0x3c0e6cdf	0.008692949
3	0xbc8d10dd	-0.017219955
4	0x3bf8e3b8	0.0075955056
5	0x3b0c7686	0.002143295
6	0xbbb8ef19	-0.005643737
7	0xbc5dcec2	-0.013538064
8	0x3d1f3e02	0.038877495
9	0x3ca14992	0.019688401
10	0xbd50883e	-0.05091118
11	0x3cda24b1	0.026628824
12	0x3cfc2efd	0.030784125
13	0xbc93cb8a	-0.01804139
14	0xbaaef6ad	-0.0013348662
15	0x3a497fd1	0.00076865876
16	0x3c6cfdb2	0.014464783
17	0x3c9ac042	0.018890504
18	0xba405347	-0.0007336628
19	0xbc310d6b	-0.010806422
20	0x3c89da7c	0.016827814
21	0xbd2ca698	-0.042151064
22	0x3c5d3e1f	0.01350358
23	0xbbbec49b	-0.005821777

encoder.bn1.running_mean f4 [24]
0	0x3b5c9b30	0.0033661835
1	0x39cd5927	0.0003916707
2	0xbbcdc32e	-0.0062793707
3	0x3a2b716c	0.00065400335
4	0xbae96830	-0.001780754
5	0x3b4ba2e0	0.0031072423
6	0x3b98bea3	0.0046613975
7	0x39ccd142	0.0003906582
8	0x3bb70e09	0.00558639
9	0xbb421030	-0.00296117
10	0x3b6446e2	0.0034832289
11	0xbbfd7e86	-0.00773603
12	0x3bbda0be	0.005786984
13	0x3b6e74e0	0.003638558
14	0x3b118113	0.0022202178
15	0x3b21aae2	0.0024668504
16	0xbba4b897	-0.0050268876
17	0x3a19b4ff	0.00058634573
18	0xbc526eef	-0.012843831
19	0x3b2e4a69	0.0026594645
20	0x3b6fde1d	0.0036600896
21	0x3ba31dfe	0.0049779406
22	0xbad8810b	-0.001651795
23	0x3ba156d0	0.004923679

encoder.bn1.running_var f4 [24]
0	0x3937242e	0.00017465718
1	0x3919c601	0.00014664979
2	0x395841d4	0.00020623888
3	0x37eef1b6	2.8484366e-05
4	0x38e0c59c	0.0001071796
5	0x38588fd1	5.1632353e-05
6	0x3905ed2e	0.00012772225
7	0x391d1de5	0.00014983823
8	0x38e70f2f	0.000110177665
9	0x388f1a6d	6.8236935e-05
10	0x389d4bbe	7.5004515e-05
11	0x39148abf	0.00014166067
12	0x38ddb14b	0.000105711246
13	0x387f6b2b	6.0896546e-05
14	0x386196e4	5.3784708e-05
15	0x38c25bf2	9.267767e-05
16	0x3961d488	0.00021536846
17	0x38a8c0f9	8.046808e-05
18	0x3a253c5f	0.00063032465
19	0x3975c43c	0.00023438124
20	0x390df3fe	0.00013537702
21	0x38a2fcb1	7.7718294e-05
22	0x39079037	0.00012928327
23	0x391d714d	0.00015014895

encoder.conv2.weight f4 [50, 24, 3, 3]
0	0xbc6fe023	-0.014640841
1	0xbd8f4a7a	-0.06996627
2	0xbbec2bf2	-0.007207387
3	0x3ca08f0b	0.019599458
4	0x3c70d84d	0.014700008
5	0xbbecde84	-0.0072286744
6	0x3b3ab8f8	0.0028491598
7	0x3d12d1a9	0.03584448
8	0x3cfeee3b	0.031119457
9	0xbd108f08	-0.035292655
10	0x3bf24c9c	0.0073943865
11	0x3d6a43ae	0.05719345
12	0xbd2cf338	-0.04222414
13	0xbd4b172b	-0.04958264
14	0x3c89fddf	0.016844688
15	0xbc263cbf	-0.010146319
16	0x3c6c5703	0.014425042
17	0x3cc136bc	0.02358567
18	0xbcf57a8b	-0.02996566
19	0xbd7eb291	-0.062182013
20	0xbd1a94eb	-0.037739675
21	0xbd66a54d	-0.056309987
22	0x3af913b4	0.0019003064
23	0xbd170c5b	-0.036877017
24	0x3cf4f1b6	0.029900413
25	0x3bd77438	0.0065751337
26	0xbd57b515	-0.052662928
27	0xbd1c7c43	-0.038204443
28	0x3d005288	0.031328708
29	0xbcec5350	-0.02884832
30	0xbd8f63f3	-0.07001486
31	0xbb8a64bd	-0.0042234347
32	0xbd577601	-0.05260277
33	0x3d71fd78	0.059079617
34	0x3d1eaec9	0.038740907
35	0x3d42f530	0.04759711
36	0xbd83a321	-0.06427599
37	0x3da973f6	0.08274071
38	0x3ab6be8e	0.0013942288
39	0x3d0a1c67	0.033718493
40	0x3dbbd04e	0.0917059
41	0xbd5e79fa	-0.054315545
42	0xbc936a95	-0.017995158
43	0x3ca5e49d	0.020250613
44	0x3bcfeb55	0.0063451924
45	0xbc2443e8	-0.010025956
46	0xbd1c0ecd	-0.038100053
47	0x3d747597	0.059682455
48	0xbd83ca8a	-0.06435116
49	0xbd6bfc5f	-0.057613727
50	0x3d0bf23a	0.034166552
51	0x3d467c02	0.048458107
52	0xbd5ca7bb	-0.053870898
53	0x3d2c698c	0.042092845
54	0xbd8c6850	-0.068558335
55	0x3d1ad4b5	0.03780051
56	0xbcfc32ff	-0.030786036
57	0x3d8d4c48	0.06899315
58	0x3cf24f6e	0.02957889
59	0xbcfce48c	-0.030870698
60	0x3c5a4319	0.013321661
61	0x3d0f7966	0.035027884
62	0xbc54942e	-0.012974782
63	0x3d4147cf	0.047187623
64	0x3d3804ee	0.044926576
65	0x3d98789b	0.07444879
66	0x3d47815a	0.048707344
67	0x3cbe744a	0.02324881
68	0x3d2c5485	0.04207279
69	0x3bb8f5a1	0.0056445156
70	0xbd2be064	-0.041962042
71	0x3c00b021	0.007854492
72	0x3c1d87fb	0.00961494
73	0x3d0a0cd1	0.03370363
74	0xbd81d026	-0.06338529
75	0x3d877214	0.066135556
76	0x3b18682e	0.0023255455
77	0xbd475094	-0.04866083
78	0x3d963076	0.07333462
79	0xbc06999a	-0.008215332
80	0xbd4165c2	-0.047216184
81	0xbc054ab3	-0.008135485
82	0xbd929832	-0.07157935
83	0xbbb1cb67	-0.005425859
84	0x3d928825	0.07154874
85	0xbd1ab8fa	-0.037774064
86	0x3d0ad918	0.033898443
87	0xbcee1865	-0.029064367
88	0xbd8938de	-0.067003
89	0xbd1ecf86	-0.03877213
90	0x3c9ad801	0.018901827
91	0x3c7b791f	0.015348702
92	0xbd161c42	-0.036648043
93	0xbcc3b127	-0.023888184
94	0x3d6f10ad	0.058365513
95	0xbb5e44ee	-0.0033915597
96	0xbd27524f	-0.04084998
97	0x3c2429e0	0.010019749
98	0xbccf0c27	-0.02527435
99	0x3d87bee7	0.066282086
100	0x3c6c15c2	0.014409484
101	0xbcc328ad	-0.023823107
102	0xbd4ab8b9	-0.04949257
103	0x3d8e40b9	0.069459386
104	0xbcccaf61	-0.02498597
105	0x3d56d343	0.05244757
106	0x3cd83a0e	0.02639487
107	0x3cc9883b	0.024601093
108	0x3c8b48ec	0.017002545
109	0xbd51c2f5	-0.051211316
110	0x3c9b2e3f	0.01894295
111	0x3b84c4f6	0.0040518
112	0xbc696dcb	-0.014247368
113	0x3c4b5ea8	0.0124127045
114	0xb9dce7f6	-0.00042134494
115	0x3c70da3f	0.014700471
116	0xbae97fe1	-0.00178146
117	0x3d8d51ca	0.06900366
118	0x3d47f6a9	0.048819218
119	0x3c0fecab	0.008784453
120	0x3d1d47e0	0.038398623
121	0x3d35a656	0.044348083
122	0xbd9952d0	-0.07486498
123	0xbc92502e	-0.017860498
124	0xbd84627c	-0.06464097
125	0xbc8b40c2	-0.016998652
126	0x3c6fada4	0.0146288015
127	0xbda16b58	-0.07881802
128	0xbd026120	-0.031830907
129	0xbd2c0e13	-0.04200561
130	0xbd402e8e	-0.046919398
131	0xbd1583c1	-0.036502603
132	0xbd40a698	-0.047033876
133	0x3d3f630a	0.04672531
134	0xbcea1615	-0.028574983
135	0xbd5d6128	-0.054047734
136	0xbb888e51	-0.004167356
137	0xbd590c7e	-0.05299043
138	0x3d255507	0.04036429
139	0x3d4bac9c	0.04972516
140	0xbd58ba2c	-0.052911922
141	0x3ca9b253	0.020714914
142	0x3d748c9a	0.0597044
143	0x3d590d0a	0.05299095
144	0x3d0634ca	0.032765187
145	0xbcadc72d	-0.021213138
146	0x3d47a8a9	0.04874483
147	0x3b7379dc	0.0037151491
148	0xbd5b39c0	-0.05352187
149	0x3d3c7c97	0.046017256
150	0x3caad80f	0.020854978
151	0xbcbe5ed7	-0.023238583
152	0xbae03598	-0.0017105816
153	0xbbde55db	-0.006785137
154	0x3d317fb4	0.043334678
155	0xbca7ec60	-0.020498455
156	0x3ca88a12	0.02057365
157	0xbd3cdd85	-0.046109695
158	0xbd7c7316	-0.061633192
159	0x3d0b6b56	0.03403791
160	0x3d542a39	0.05179808
161	0xbd872d02	-0.066003814
162	0xbd0030ee	-0.031296663
163	0xbc8a62b3	-0.016892767
164	0xbc698528	-0.014252938
165	0xbce6ed11	-0.028189214
166	0x3d7930da	0.060837604
167	0xbd25e3cf	-0.04050046
168	0xbd29a942	-0.041421182
169	0x3d6b329f	0.057421323
170	0x3d67fc0b	0.05663685
171	0x3d29da44	0.04146792
172	0x3cef9d98	0.029249951
173	0x3c5efb31	0.013609693
174	0x3bad2090	0.005283423
175	0xbc083be2	-0.008315058
176	0x3d6c4345	0.05768134
177	0x3cf3adde	0.029745992
178	0x3c036920	0.008020669
179	0x3d4d0a45	0.050058622
180	0xbce04145	-0.027374873
181	0xbd822bfd	-0.06356046
182	0x3d31a23b	0.043367606
183	0xbd8a801c	-0.06762716
184	0x3d30d82f	0.04317492
185	0xbd332797	-0.043738928
186	0xbd247cc4	-0.04015805
187	0x3d5db7b5	0.054130275
188	0xbd2c46f6	-0.04205986
189	0x3b5d3890	0.0033755638
190	0x3d00bee8	0.031432062
191	0x3d326332	0.04355163
192	0x3d83bb7c	0.06432244
193	0xbd539db4	-0.05166407
194	0xbcd9dd83	-0.026594883
195	0xbd74e786	-0.05979111
196	0x3c4da8cc	0.012552451
197	0xbd427104	-0.04747106
198	0x3ce8d2f7	0.028420908
199	0xbbf060e3	-0.0073357685
200	0xbbb4c723	-0.005516903
201	0x3cf1295b	0.029438665
202	0xbd76373c	-0.06011127
203	0x3cf8c679	0.030368077
204	0x3ced7bd1	0.028989704
205	0xbd8edccf	-0.0697571
206	0xbd8287a9	-0.06373531
207	0x3cf72525	0.03016908
208	0x3ce2b1a5	0.027672598
209	0xbccfc236	-0.025361162
210	0xbd8752fa	-0.066076234
211	0x3cc5414d	0.02407899
212	0x3d6df693	0.05809648
213	0xbce315d0	-0.027720362
214	0x3d289ac7	0.041163232
215	0xbd33be8f	-0.043882903
216	0x3ccc1e2b	0.024916729
217	0x3d00c244	0.031435266
218	0x3d3c0aa9	0.045908604
219	0x3d4184e9	0.047245894
220	0x3d395a51	0.045252148
221	0x3d39c67b	0.0453553
222	0x3ac13c45	0.0014742693
223	0x3cd8044e	0.02636924
224	0x3c5953cb	0.013264607
225	0xbc1bdf66	-0.009513712
226	0x3d7c62e3	0.061617743
227	0x3d20cfa1	0.03926051
228	0x3caff529	0.021479206
229	0xbc4466b8	-0.011987381
230	0xbcaaa4ec	-0.020830594
231	0xbd78d76f	-0.06075233
232	0x3cd49a28	0.025952414
233	0xbd4187af	-0.04724854
234	0x3cbdb223	0.023156231
235	0x3d7df68b	0.0620027
236	0xbd4a98cc	-0.049462125
237	0xbd89544f	-0.06705534
238	0xbc000fb8	-0.007816248
239	0xbc29a58d	-0.010354412
240	0x3d2fa006	0.04287722
241	0xbd6244cf	-0.055241402
242	0x3d8f3951	0.06993354
243	0xbcbdbfce	-0.023162749
244	0xbce57d2d	-0.02801379
245	0xbd524a73	-0.05134053
246	0xbdbb5454	-0.09146944
247	0xbd7f692a	-0.06235615
248	0x3ca26de2	0.019827787
249	0x3c83024c	0.015992306
250	0xbd09794d	-0.033562947
251	0xbd4f59f3	-0.05062289
252	0x3d3e6b6d	0.046489168
253	0x3d62cba4	0.055369988
254	0xbd11e60f	-0.03561979
255	0x3bde46fc	0.0067833643

encoder.bn2.weight f4 [50]
0	0x3f84ecfc	1.0384822
1	0x3f7bc215	0.9834302
2	0x3f7dd816	0.99157846
3	0x3f7db6a0	0.9910679
4	0x3f7eae92	0.99485123
5	0x3f802b64	1.0013242
6	0x3f868b77	1.0511311
7	0x3f7be0bd	0.983898
8	0x3f8111cd	1.0083557
9	0x3f7c483f	0.9854774
10	0x3f7db7cb	0.9910857
11	0x3f7e54f5	0.99348384
12	0x3f7bec6f	0.98407644
13	0x3f7f5888	0.9974446
14	0x3f8080dc	1.0039325
15	0x3f7cb3f6	0.987121
16	0x3f7b3bce	0.9813813
17	0x3f83f142	1.0308001
18	0x3f84886b	1.0354131
19	0x3f80bf75	1.0058428
20	0x3f840fa3	1.0317272
21	0x3f7af7d8	0.9803443
22	0x3f7b8046	0.98242605
23	0x3f81708e	1.0112474
24	0x3f80add3	1.0053047
25	0x3f7c53e7	0.98565525
26	0x3f7e5c26	0.9935936
27	0x3f7d2de6	0.9889816
28	0x3f811291	1.0083791
29	0x3f85515a	1.0415452
30	0x3f8aedc0	1.0853806
31	0x3f7c9e63	0.9867918
32	0x3f811424	1.0084271
33	0x3f81a940	1.0129776
34	0x3f80d887	1.0066079
35	0x3f7fb86c	0.9989078
36	0x3f773fa3	0.96581477
37	0x3f7f0220	0.9961262
38	0x3f850aef	1.0393962
39	0x3f7ffb85	0.99993163
40	0x3f7b305e	0.9812068
41	0x3f7bff95	0.9843686
42	0x3f7f0ad5	0.99625903
43	0x3f842deb	1.0326513
44	0x3f7cff29	0.98826844
45	0x3f80ed8d	1.0072495
46	0x3f7c2912	0.9850017
47	0x3f82c67b	1.0216821
48	0x3f7f4c33	0.99725646
49	0x3f8071d3	1.0034736

encoder.bn2.bias f4 [50]
0	0xbd7a9f6c	-0.061187193
1	0xbd906c9a	-0.07051964
2	0xbd5e1b44	-0.05422522
3	0xbd7ccf45	-0.061721105
4	0xbdb77be7	-0.08959179
5	0xbd7864a6	-0.06064286
6	0xbd56e0ed	-0.0524606
7	0xbdbc39ca	-0.0919071
8	0xbd8ff45c	-0.0702903
9	0xbd91cf5a	-0.07119627
10	0xbd4bc3a2	-0.049747117
11	0xbdb18d09	-0.086694784
12	0xbdbb870f	-0.0915662
13	0xbd9ad671	-0.07560433
14	0xbdbc5c2a	-0.091972664
15	0xbd98f27c	-0.07468125
16	0xbd993b91	-0.074820645
17	0xbcd11f1c	-0.02552753
18	0xbccc00de	-0.024902757
19	0xbd97a1ca	-0.07403906
20	0xbc16e961	-0.009210915
21	0xbd88ed92	-0.06685938
22	0xbd64c769	-0.055854235
23	0xbcf72131	-0.030167194
24	0xbd921af2	-0.07134046
25	0xbd661463	-0.056171786
26	0xbd5e41d2	-0.05426199
27	0xbd57949a	-0.052631952
28	0xbda358fe	-0.07975958
29	0xbce43719	-0.027858304
30	0x3b976158	0.0046197586
31	0xbda42dcb	-0.08016547
32	0xbc9afd56	-0.018919628
33	0xbd4c8be3	-0.049938094
34	0xbd76c743	-0.060248625
35	0xbd9053d3	-0.07047238
36	0xbda873c1	-0.08225203
37	0xbd9e8c86	-0.077416465
38	0xbc9afed4	-0.01892034
39	0xbd3012fb	-0.04298685
40	0xbd93d563	-0.07218435
41	0xbd530bd5	-0.051524956
42	0xbd1cf26f	-0.03831714
43	0xbd04ccf6	-0.03242203
44	0xbd962ae2	-0.07332398
45	0xbd408d3f	-0.047009703
46	0xbd8de601	-0.069286354
47	0xbd2d005d	-0.042236675
48	0xbd588b04	-0.05286695
49	0xbd55238e	-0.05203586

encoder.bn2.running_mean f4 [50]
0	0x3dae6a87	0.08516412
1	0xbd83b2af	-0.064305656
2	0x3e2f6675	0.17128928
3	0xbe17bbff	-0.14817809
4	0xbe95700f	-0.29187056
5	0xbd8d33a9	-0.06894619
6	0x3d1cb3f7	0.038257565
7	0xbd159d4f	-0.036526974
8	0xbbd6447c	-0.0065389257
9	0xbd9771e4	-0.0739477
10	0x3ebc3f1b	0.36766896
11	0xbe80cbb9	-0.25155428
12	0x3ddcf1ef	0.10788333
13	0xbb976597	-0.0046202647
14	0x3e4ab447	0.19795333
15	0x3db4c364	0.0882633
16	0x3d04a23a	0.032381274
17	0x3d8f2cf9	0.06991
18	0x3e6d923f	0.2320032
19	0x3e2081af	0.1567447
20	0xbb84f8e1	-0.004057989
21	0xbdb520f3	-0.08844175
22	0xbdfd3e2b	-0.12365373
23	0x3e552982	0.20816615
24	0xbdcefd34	-0.101068884
25	0xbc584493	-0.013199943
26	0xbd2068e3	-0.039162528
27	0x3e3b9615	0.1831897
28	0xbacd4de0	-0.0015663467
29	0x3e009722	0.12557653
30	0x3e7ce812	0.24697903
31	0xbe1b4798	-0.1516403
32	0xbec77821	-0.3895884
33	0xbe29ea47	-0.16593276
34	0x3e6564d7	0.22401749
35	0xbe2adfe7	-0.16686974
36	0xbe3d60b7	-0.18493925
37	0xbd8d11f3	-0.06888189
38	0x3e33db32	0.17564085
39	0xbdc1e8d9	-0.0946824
40	0xbd9d68b2	-0.07685985
41	0xbe32cd63	-0.17461161
42	0xbe74bab1	-0.23899342
43	0xbdd16a82	-0.10225393
44	0xbdc7215c	-0.0972316
45	0xbd63fe6f	-0.05566257
46	0x3e5365d9	0.2064432
47	0x3e01496d	0.12625666
48	0x3df7654f	0.1207987
49	0x3c874b7e	0.01651549

encoder.bn2.running_var f4 [50]
0	0x3ddb6f36	0.10714571
1	0x3dd1a5a7	0.10236674
2	0x3d492231	0.049104873
3	0x3dee608e	0.1163951
4	0x3e29479a	0.1653122
5	0x3cdaef87	0.026725544
6	0x3e088570	0.13332152
7	0x3d6c8674	0.057745412
8	0x3d1e22a9	0.038607273
9	0x3d7e9182	0.062150486
10	0x3e96d8b4	0.29462206
11	0x3e4a81e3	0.1977611
12	0x3ce1b1c5	0.027550587
13	0x3d49d729	0.04927746
14	0x3c956bca	0.018239874
15	0x3da48ec3	0.08035042
16	0x3d824d86	0.06362443
17	0x3e0ab4ac	0.13545483
18	0x3e2e6c78	0.17033565
19	0x3ccc7940	0.02496016
20	0x3d4a9748	0.04946068
21	0x3de68301	0.11255456
22	0x3def735b	0.11691924
23	0x3e1eacc3	0.15495591
24	0x3d4b474b	0.049628537
25	0x3dc1512a	0.09439309
26	0x3d4d7776	0.050162755
27	0x3db9cef6	0.09072678
28	0x3dea173c	0.11430213
29	0x3da6be69	0.081417866
30	0x3e3efbda	0.18650761
31	0x3dc88514	0.09791008
32	0x3df92f14	0.121671826
33	0x3e359c49	0.177354
34	0x3da516df	0.08061003
35	0x3daec491	0.08533586
36	0x3e69f1fc	0.22846216
37	0x3cf55116	0.029945891
38	0x3e1fa423	0.15589957
39	0x3d0035f4	0.031301454
40	0x3e3041f8	0.17212665
41	0x3dd16d7a	0.10225959
42	0x3dad5882	0.08464147
43	0x3d69b533	0.05705757
44	0x3d019871	0.03163952
45	0x3d5706da	0.05249677
46	0x3e3ae718	0.18252218
47	0x3d1073a5	0.035266537
48	0x3dbc1e89	0.091855116
49	0x3d21ef80	0.039535046

predictor.conv1.weight f4 [24, 52, 3, 3]
0	0x3c549a81	0.01297629
1	0x3d094e48	0.03352192
2	0x3b8c5650	0.00428275
3	0xbd19358d	-0.037404586
4	0xbd0bb832	-0.03411121
5	0x3cecadc5	0.028891454
6	0x3d1b572e	0.037924938
7	0x3d05aceb	0.03263561
8	0x3c5723a5	0.013131057
9	0x3bed71a9	0.0072462154
10	0xbcc99200	-0.024605751
11	0xbc7b62c5	-0.015343373
12	0xbcfae770	-0.030627936
13	0x3d304787	0.043036964
14	0x3d109897	0.03530177
15	0x3d037761	0.03209627
16	0x3c4a12c1	0.012333573
17	0x3c7403b3	0.01489346
18	0xbb8598a1	-0.0040770327
19	0x3b210295	0.002456819
20	0x3d1e668a	0.038672008
21	0xbcea25fa	-0.028582562
22	0x3d269f91	0.040679518
23	0xbc19f52c	-0.009396832
24	0xbd04d8a2	-0.03243316
25	0xbd25400b	-0.04034428
26	0xbd0c3064	-0.034225836
27	0x3d25ac92	0.04044778
28	0x3cb178c2	0.021664027
29	0xbc844639	-0.016146766
30	0xbcf20b9b	-0.02954655
31	0x3ce9dfca	0.028549094
32	0x3c0042d0	0.007828429
33	0xbadefe1f	-0.001701299
34	0x3d13863f	0.0360167
35	0x3b093da4	0.0020941282
36	0xbd3f48a9	-0.046700153
37	0x3b8ec647	0.0043571326
38	0x3c20b126	0.0098078605
39	0x3d2099cc	0.039209172
40	0xbca96f46	-0.020682942
41	0xba41f777	-0.0007399241
42	0xbcd4d916	-0.02598242
43	0x3ba0a74a	0.004902755
44	0x3c636e9b	0.013881351
45	0xbcce0114	-0.025146998
46	0x3cedf3d9	0.02904694
47	0x3bcddee8	0.006282676
48	0xbcdb0c3f	-0.026739238
49	0xbcd58951	-0.026066454
50	0xbcfe0d60	-0.031012237
51	0xbbed7db7	-0.0072476524
52	0x3d222b7b	0.039592247
53	0x3cf9f660	0.030512989
54	0x3cb161a4	0.021653004
55	0xbba5b495	-0.0050569274
56	0x3c5f7a67	0.013640023
57	0xbc6cfbeb	-0.014464359
58	0xbcd8a1b9	-0.026444303
59	0xbd2ef481	-0.042713646
60	0xbc86d7d2	-0.016460333
61	0xbcb3c89d	-0.021946246
62	0xbbb0f5cf	-0.0054003964
63	0x3caf7f34	0.02142296
64	0x3cf7f0fe	0.030266281
65	0xbbdced64	-0.0067421664
66	0x3ce39676	0.027781706
67	0x3d431dd7	0.04763588
68	0xbcaab041	-0.020835998
69	0x3d062f71	0.032760087
70	0x3bd97edd	0.0066374377
71	0xbb8bb4b7	-0.0042634862
72	0x3d3d8f25	0.04627909
73	0x3d1f6891	0.03891808
74	0xbcd1de5a	-0.02561872
75	0xbc16e93a	-0.009210879
76	0x3d187984	0.03722526
77	0xbc334414	-0.010941524
78	0x3b4aaaf9	0.0030924662
79	0x3cfc96e6	0.030833673
80	0x3ca3b756	0.019984882
81	0x3d408e1e	0.047010534
82	0xbcb4c428	-0.02206619
83	0x3cd1707b	0.02556633
84	0xbabd4021	-0.0014438668
85	0xbc34b671	-0.011029826
86	0xbbb2ebcb	-0.0054602376
87	0x3cb871f2	0.02251527
88	0x3b67801c	0.0035324162
89	0xbc1f7515	-0.009732504
90	0x3a2a41cc	0.000649479
91	0xbd14c14f	-0.036317166
92	0x3d01fa20	0.03173268
93	0xbcabb334	-0.020959474
94	0xbcf77eb5	-0.030211786
95	0xbd07f52b	-0.033192795
96	0xbc205866	-0.009786701
97	0xbb9a43c4	-0.0047077853
98	0xbd2cfdcc	-0.042234227
99	0x3cc3b5bf	0.023890374
100	0x3cb3cbb2	0.021947715
101	0x3c1b45e5	0.009477113
102	0xbd392f8c	-0.04521136
103	0xbb6573df	-0.0035011692
104	0xbcae7e0e	-0.021300342
105	0xbba67f67	-0.0050811055
106	0xbc2059f4	-0.0097870715
107	0x3d006509	0.031346355
108	0x3b019e88	0.001977833
109	0x3cd5f017	0.02611546
110	0x3bba98b0	0.0056944713
111	0xbb460144	-0.0030213157
112	0xbc5dbec5	-0.0135342525
113	0x3d29fe0d	0.041502047
114	0x3d077c48	0.03307751
115	0xbbf087d7	-0.007340412
116	0xbcc7fc80	-0.024412394
117	0x3ae811a0	0.0017705448
118	0xbd106efd	-0.035262097
119	0x3d11bf45	0.0355828
120	0x3d55ed34	0.052228168
121	0x3c8af48e	0.016962316
122	0xbc320010	-0.010864273
123	0x3bd91136	0.006624366
124	0x3cd06c27	0.025442196
125	0x3ba5a23a	0.0050547393
126	0xbc19ba48	-0.009382792
127	0x3a10bb33	0.0005521059
128	0x3cb66eea	0.022269685
129	0xbca5cf51	-0.020240458
130	0xbc40c1bb	-0.011764939
131	0x3d4fcb14	0.05073078
132	0xbc278003	-0.0102233915
133	0xbc91c7d3	-0.017795479
134	0x3d3c5db4	0.0459878
135	0x3cdffc0a	0.027341861
136	0x3cd84b85	0.026403198
137	0xbcf0dcb0	-0.029402107
138	0x3d6b2647	0.05740955
139	0x3c10a332	0.008827971
140	0xbce9c769	-0.028537469
141	0xbd1b3d01	-0.037899975
142	0xbd3ab26a	-0.045580305
143	0xbc53c70b	-0.0129258735
144	0xbcb850e4	-0.02249951
145	0xbd03b07b	-0.032150727
146	0x3c88899e	0.016667183
147	0x3d2766d4	0.04086955
148	0x3cf8dc89	0.030378597
149	0xbc62eeaf	-0.013850852
150	0x3d461621	0.048360948
151	0x3ce18311	0.027528318
152	0xbc80d496	-0.015726369
153	0x3c32262e	0.010873361
154	0xbcc887bb	-0.024478784
155	0x3ca1cc84	0.019750841
156	0x3d43ed33	0.047833633
157	0xbc8cc262	-0.017182533
158	0x3cea9bb0	0.02863869
159	0x3c2efb0d	0.010679972
160	0x3ba704da	0.005097014
161	0x3c1cd81d	0.00957301
162	0x3cde72fa	0.027154434
163	0xbc1c1635	-0.009526779
164	0xbc10e848	-0.008844443
165	0x3d127732	0.035758205
166	0x39e8fd51	0.00044439224
167	0x3ca035cf	0.019556908
168	0x3d40940e	0.047016196
169	0xba9aa94a	-0.001179972
170	0xbb399e9d	-0.00283233
171	0x3b4d382c	0.0031313999
172	0xbbc748c7	-0.006081674
173	0x3c6b33c6	0.0143556055
174	0x3d10395e	0.03521096
175	0xbca77840	-0.020443082
176	0xbccc8c62	-0.024969283
177	0xbd19b4ec	-0.037526056
178	0x3d24272c	0.04007642
179	0x3c726017	0.014793417
180	0xbceecdf7	-0.029150946
181	0xbd07a1c0	-0.03311324
182	0xbc4bfe20	-0.012450725
183	0x3c8340a9	0.016022043
184	0x3cbe847c	0.023256533
185	0xbc5e86ff	-0.01358199
186	0x3ca02974	0.019551016
187	0x3bb0ec07	0.0053992304
188	0x3c86fa3d	0.016476745
189	0xbca083bf	-0.019594071
190	0xbc0e16ed	-0.008672458
191	0xbd0fc8e2	-0.035103686
192	0x3ce58258	0.028016254
193	0xbc828a3d	-0.015935058
194	0xbc7ec6a0	-0.015550286
195	0xbcdba7a6	-0.02681334
196	0xbcf469d6	-0.029835623
197	0xbb4f7e92	-0.0031661135
198	0xbd0841f4	-0.033266023
199	0xbd6948b1	-0.05695409
200	0x3c723a89	0.014784464
201	0xbd29b8c6	-0.04143598
202	0xbd48ae51	-0.048994366
203	0xbd3249e7	-0.04352751
204	0xbd48e20f	-0.04904371
205	0x3cce5837	0.025188548
206	0x3c356437	0.011071256
207	0xbcec3c24	-0.028837271
208	0x3bed95df	0.007250532
209	0xbcee2836	-0.029071908
210	0x3d129eed	0.035796095
211	0x3ce0907b	0.027412644
212	0x3d152e99	0.036421392
213	0xbcde6af0	-0.027150601
214	0x3c89f6e1	0.016841354
215	0xbd0c5eea	-0.034270205
216	0x3c28f2ab	0.010311763
217	0xbb56e863	-0.0032792322
218	0x3b5be4bb	0.0033553082
219	0x3ca2fc14	0.01989559
220	0x3c29620a	0.010338316
221	0x3c305220	0.010761768
222	0x3c5ee07c	0.013603326
223	0xbd00c003	-0.031433117
224	0x3b929321	0.0044731055
225	0xbd18dc2a	-0.03731934
226	0xbccb10e9	-0.024788337
227	0x3a5b43fa	0.00083643163
228	0x3c2ad4ed	0.010426742
229	0xbbca6cc0	-0.006177515
230	0xbd027262	-0.031847365
231	0xbc90b9a7	-0.017666651
232	0xbd2b109a	-0.04176388
233	0x3d00fbc4	0.031490102
234	0xbd1004b1	-0.035160724
235	0x3ca35351	0.01993719
236	0xbc8286be	-0.01593339
237	0xbce9f7ed	-0.028560603
238	0x3c5f6da9	0.013636985
239	0x3cc136c1	0.023585679
240	0xbc23a6d9	-0.00998851
241	0xbd070f39	-0.0329735
242	0xbc3753af	-0.011189385
243	0xbcfb64be	-0.030687686
244	0xbb8617a1	-0.0040921723
245	0xbc620303	-0.013794663
246	0x3d18197f	0.03713369
247	0x3d1d25ab	0.038366
248	0x3c57e6dc	0.0131776
249	0x3cbad907	0.022808565
250	0xbd202054	-0.03909333
251	0xbd50b2dc	-0.050951824
252	0xbd14d4d2	-0.036335774
253	0x3c8934a6	0.016748738
254	0xbcd6aecf	-0.026206402
255	0x3d2246bd	0.039618243

predictor.bn1.weight f4 [24]
0	0x3f7b822b	0.98245496
1	0x3f79a904	0.9752352
2	0x3f7f8afe	0.9982146
3	0x3f8140cd	1.0097901
4	0x3f79fd30	0.9765196
5	0x3f7f32a4	0.99686646
6	0x3f8383e3	1.0274624
7	0x3f82a4ce	1.0206544
8	0x3f7dcd8d	0.9914177
9	0x3f7e51ae	0.99343383
10	0x3f7ed695	0.99546176
11	0x3f782424	0.96930146
12	0x3f824cf6	1.0179737
13	0x3f8134b0	1.0094204
14	0x3f82bf54	1.0214639
15	0x3f7ad9de	0.9798869
16	0x3f8387d3	1.0275825
17	0x3f81f791	1.0153676
18	0x3f7f864f	0.99814314
19	0x3f82ab98	1.0208616
20	0x3f786cd1	0.9704104
21	0x3f80df28	1.0068102
22	0x3f79d1e7	0.9758591
23	0x3f83bf3a	1.0292733

predictor.bn1.bias f4 [24]
0	0x3bf807ac	0.007569274
1	0x3c9f5349	0.019448893
2	0x3ce1dc41	0.027570846
3	0x3cf6f356	0.030145328
4	0x3bb5ab37	0.005544092
5	0x3cacc252	0.021088753
6	0x3c6b4bf6	0.014361372
7	0x3d16100c	0.036636397
8	0x3cc36d5a	0.023855854
9	0x3cdc6023	0.02690131
10	0x3caa1628	0.020762518
11	0xbcfec1bf	-0.031098245
12	0x3c2c2910	0.010507837
13	0x3d2695b8	0.040670127
14	0x3d323f95	0.043517668
15	0xbcef1c17	-0.029188199
16	0x3d200685	0.039068718
17	0x3b565485	0.0032704186
18	0x3c106b35	0.008814623
19	0x3d458b25	0.0482284
20	0x3ba6cc8d	0.0050903023
21	0x3d0b0c18	0.03394708
22	0xbc3e8f28	-0.011630811
23	0x3d207eb2	0.039183326

predictor.bn1.running_mean f4 [24]
0	0x3d487852	0.04894287
1	0xbe9b88be	-0.30377764
2	0xbe8d16e3	-0.27556524
3	0xbf35efb9	-0.7106891
4	0xbe8ecb82	-0.2788964
5	0x3ecc0482	0.3984719
6	0xbe867d79	-0.26267603
7	0xbf66f3f0	-0.9021597
8	0xbed4d7b2	-0.41570812
9	0xbce1e2ee	-0.027574029
10	0x3f83f434	1.03089
11	0x3e32618d	0.17420025
12	0xbe01780b	-0.12643449
13	0xbf2cd68d	-0.6751488
14	0xbe3dca28	-0.18534148
15	0x3ef16c43	0.4715291
16	0xbdf3f978	-0.11912817
17	0x3f37482e	0.7159451
18	0x3d4d2993	0.050088476
19	0xbf111dcb	-0.56686085
20	0xbea4de65	-0.32200924
21	0xbf0862eb	-0.53275937
22	0x3eb89f44	0.3605901
23	0xbebfc351	-0.37453702

predictor.bn1.running_var f4 [24]
0	0x3e232e60	0.1593566
1	0x3ea66e51	0.3250604
2	0x3ead27b0	0.33819342
3	0x3ed5c043	0.41748247
4	0x3e62a428	0.22132933
5	0x3f20908f	0.6272058
6	0x3e8b2b62	0.27181536
7	0x3f709544	0.9397776
8	0x3ec85c2f	0.3913283
9	0x3ebe19f2	0.3712917
10	0x3eb81942	0.3595677
11	0x3e1edcff	0.15513991
12	0x3e87804d	0.26465073
13	0x3ed7afcf	0.4212632
14	0x3f23f73c	0.64049125
15	0x3e0c3daa	0.13695398
16	0x3ef20764	0.47271264
17	0x3e485949	0.1956531
18	0x3ea7007b	0.32617554
19	0x3f273781	0.6531907
20	0x3f2d7e19	0.67770535
21	0x3f39b514	0.7254193
22	0x3e10ce21	0.14141132
23	0x3f4a889d	0.79114705

predictor.conv2.weight f4 [50, 24, 3, 3]
0	0xbceb7b63	-0.028745359
1	0xbd1650f1	-0.036698285
2	0x3d17bd01	0.037045483
3	0x3d44883c	0.047981486
4	0x3d0fd87d	0.03511857
5	0xbd5779cf	-0.0526064
6	0xbce6fa10	-0.028195411
7	0xbd08959d	-0.033345807
8	0x3bef8b74	0.0073103253
9	0xbbde2d9a	-0.0067803385
10	0xbd4262fa	-0.047457673
11	0xbcede8d1	-0.02904168
12	0x3c9e55b5	0.019327978
13	0xbdac170b	-0.084028326
14	0x3c44419f	0.011978536
15	0xbd57772b	-0.05260388
16	0xbae3f5c4	-0.001739197
17	0xbcb778a2	-0.02239639
18	0xbd2e65eb	-0.042577665
19	0xbcbf3a24	-0.023343153
20	0xbd39d170	-0.04536575
21	0x3a9dd5bb	0.0012041846
22	0xbc50e548	-0.012749977
23	0xbd14d5e5	-0.0363368
24	0xbc10c258	-0.008835398
25	0xbce0b803	-0.027431494
26	0x3d50a3a2	0.050937302
27	0xbb510294	-0.0031892406
28	0x3c4ca233	0.012489843
29	0xbcaf6945	-0.021412501
30	0xbd156295	-0.03647097
31	0xbd48318a	-0.04887537
32	0xbd46cb19	-0.048533533
33	0xbd204f64	-0.039138213
34	0x3c6f2b00	0.014597654
35	0x3d29c3a9	0.04144636
36	0xbc0c8998	-0.008577727
37	0x3d1fc863	0.039009463
38	0xbd56ef31	-0.052474204
39	0x3c8f6a7d	0.017506832
40	0xbc79d00a	-0.015247354
41	0x3d38624a	0.04501561
42	0xbcb54e61	-0.0221321
43	0x3c656f52	0.014003592
44	0x3bed9315	0.0072501996
45	0x3d633e4d	0.055479337
46	0xbd321882	-0.043480404
47	0xbc84fe5a	-0.016234566
48	0xbd62f289	-0.05540708
49	0x3c08cd99	0.0083498
50	0xbc865d39	-0.016401874
51	0x3d05cffe	0.03266906
52	0x3d43a733	0.047766875
53	0x3b8e8991	0.0043498953
54	0x3cf989de	0.030461248
55	0xbd777df7	-0.060422864
56	0xbd2225f9	-0.039586995
57	0xbd791f50	-0.060820878
58	0x3daee721	0.08540178
59	0x3cf7be4c	0.030242108
60	0xbca2c6c0	-0.019870162
61	0x3c702144	0.014656369
62	0x3d6a5727	0.05721202
63	0x3c5c16e1	0.013433189
64	0xbbab51dc	-0.0052282643
65	0x3d23f39b	0.040027242
66	0xbd6be8fb	-0.057595234
67	0xbddd7bff	-0.10814666
68	0xbd11082b	-0.03540818
69	0xbd66ca1b	-0.056345087
70	0xbd21506b	-0.039383333
71	0x3bd4c299	0.0064929244
72	0xbd52a407	-0.05142596
73	0xbd741ee4	-0.059599772
74	0xbcb7ac49	-0.02242102
75	0xbd602602	-0.054723747
76	0xbd021105	-0.031754512
77	0x3ccd59a1	0.025067152
78	0xbd57a1b7	-0.052644458
79	0xbd3f5856	-0.046715103
80	0xbd337638	-0.043813914
81	0xbcabf2ae	-0.020989742
82	0x3cffe5da	0.031237531
83	0x3c189bce	0.0093144905
84	0xbc9abeab	-0.018889746
85	0x3ca45a33	0.020062542
86	0x3b063cac	0.002048294
87	0xbcd90a0d	-0.02649405
88	0x3c6bf510	0.014401689
89	0x3d5c604f	0.053802785
90	0xbc4f493e	-0.01265174
91	0x3d1ff000	0.03904724
92	0x3d15666f	0.03647464
93	0x3d2f9400	0.042865753
94	0xbccf4135	-0.025299648
95	0xbd9c4dcf	-0.07632028
96	0xbd7228b7	-0.05912086
97	0xbd1c637a	-0.038180806
98	0xbd8a8b48	-0.06764847
99	0x3a20feba	0.0006141473
100	0xbd1added	-0.0378093
101	0xbd0fb5ad	-0.03508537
102	0xbcefd1bb	-0.029274812
103	0x3d6a3079	0.057175133
104	0x3c5d37e0	0.013502091
105	0x3bb716fb	0.0055874563
106	0x3cb5716a	0.022148807
107	0x3d2805a8	0.04102102
108	0xbc304d75	-0.010760655
109	0x3c676bbe	0.014124809
110	0x3d5ecf1e	0.05439674
111	0xbcec70e4	-0.028862424
112	0x3d79c205	0.060976047
113	0x3b329af8	0.0027253013
114	0xbd632ecd	-0.055464555
115	0x3d074681	0.033026222
116	0x3da409fc	0.08009717
117	0xbcb413eb	-0.021982154
118	0xbcee15aa	-0.029063065
119	0xbc1feaa4	-0.0097605325
120	0x3d44508c	0.047928378
121	0x3cb8c360	0.0225541
122	0x3bf49380	0.0074638724
123	0xbc913dd6	-0.017729681
124	0xbd9a4358	-0.07532376
125	0xbcc64823	-0.02420432
126	0xbd0fdd99	-0.03512344
127	0xbc2b31b6	-0.010448864
128	0xbc97d998	-0.018536374
129	0xbd87bf0f	-0.066282384
130	0xbd59ed53	-0.053204846
131	0xbce77592	-0.028254304
132	0x3cd51d5f	0.026014982
133	0xbd47d30e	-0.04878526
134	0xbbc474a9	-0.0059953523
135	0x3cfc7482	0.030817274
136	0xbc262d9a	-0.010142708
137	0xbc1aefc9	-0.009456583
138	0xbd743acf	-0.059626397
139	0xbcf3268f	-0.029681472
140	0x3d113c5c	0.035457954
141	0x3c271e3a	0.010200078
142	0x3d0aacf2	0.03385634
143	0x3ce6c751	0.028171213
144	0x3d1ae525	0.037816186
145	0xbda18e28	-0.07888442
146	0xbd93511f	-0.07193207
147	0x3d2ab48b	0.041676085
148	0xbd51a4b9	-0.051182482
149	0xbd25bddd	-0.04046427
150	0xbd264021	-0.0405885
151	0x3cbd53e8	0.023111299
152	0xbd0addad	-0.033902813
153	0x3d034076	0.032043897
154	0xbd78bf82	-0.06072951
155	0x3b59028a	0.0033113086
156	0x3ca2c034	0.01986704
157	0x3d5c6a48	0.053812295
158	0xbd6d9d24	-0.05801119
159	0xbccd7673	-0.025080895
160	0x3cb32b28	0.021871164
161	0x3bfc83b6	0.007706131
162	0x3b89b149	0.0042020422
163	0x3ce4d6a6	0.027934384
164	0x3d6c4b26	0.057688855
165	0xbc12f9f5	-0.008970727
166	0x3d818b3c	0.06325385
167	0xbbc9a88c	-0.0061541256
168	0xbd0f51d6	-0.034990154
169	0x3c63b559	0.013898217
170	0x3d105610	0.035238326
171	0xbd94c182	-0.07263471
172	0x3d21db39	0.039515708
173	0x3c4c01cd	0.012451601
174	0xbccb176c	-0.024791442
175	0x3d393ef7	0.045226064
176	0xbb3f673f	-0.0029205827
177	0x3ce6abec	0.02815815
178	0xbd7b0647	-0.061285283
179	0xbcd7dbca	-0.02634992
180	0xbd621e7d	-0.055204857
181	0xbd8b6263	-0.06805875
182	0xba38146a	-0.0007022085
183	0x3d04a02b	0.03237931
184	0x3c76c81d	0.015062359
185	0xbd109837	-0.035301413
186	0xbca45324	-0.020059176
187	0xbb7a69db	-0.0038210067
188	0xbb0f368b	-0.0021852579
189	0xbd704a3f	-0.058664557
190	0x3d666370	0.056247175
191	0xbcaf9fd9	-0.021438526
192	0xbd4761ad	-0.048677135
193	0x3d65ac5c	0.056072578
194	0xbd204309	-0.03912643
195	0x3d1bcf8d	0.038039733
196	0x3d6550dc	0.055985317
197	0xbc7a1a16	-0.015265008
198	0x3bd11676	0.0063808514
199	0xbb890742	-0.0041817734
200	0x3d1be53b	0.038060408
201	0xbc96fe18	-0.018431708
202	0xbd6e7fb9	-0.058227275
203	0x3c913965	0.017727563
204	0x3c00f1b5	0.007870127
205	0xbcd539b4	-0.026028492
206	0x3be07a32	0.0068505043
207	0x3d18a71b	0.03726874
208	0xbc9ae15c	-0.018906288
209	0xbc78bdbe	-0.015181957
210	0x3cf735a7	0.03017695
211	0xbd5c990e	-0.0538569
212	0xbd99c4b2	-0.0750822
213	0x3b89847b	0.004196701
214	0xbcbff990	-0.02343443
215	0xbce65665	-0.028117368
216	0x3d21f765	0.039542574
217	0x3cc63605	0.02419568
218	0x3c0f1c01	0.008734704
219	0xbd92a0ac	-0.07159552
220	0x3d4f8852	0.050667115
221	0x3d1c8d48	0.038220674
222	0x3ba15d07	0.00492442
223	0x3d05444a	0.03253583
224	0x3d181268	0.03712693
225	0x3ca1f0af	0.019768087
226	0x3d359f7e	0.044341557
227	0xbd3287e6	-0.043586634
228	0xbd34ea5c	-0.044168815
229	0x3d8207eb	0.063491665
230	0xbd5cbc82	-0.053890713
231	0xbcf37462	-0.029718582
232	0xbaf705f9	-0.0018846384
233	0x3d02e4a3	0.031956326
234	0xbd6fbc4b	-0.05852918
235	0x3cdf8f65	0.027290056
236	0x3d52ba94	0.051447466
237	0x3ce4d13e	0.027931806
238	0xb8ebf50b	-0.00011251316
239	0xbb2394b8	-0.002496047
240	0xbd35c555	-0.044377644
241	0xbcc7eb36	-0.02440415
242	0x3d86edda	0.06588335
243	0xbd1b1a1d	-0.0378667
244	0xbc93761e	-0.018000659
245	0xbd805e52	-0.0626799
246	0x3bc88ea9	0.006120522
247	0x3d45abea	0.048259653
248	0xbd30f659	-0.043203685
249	0xbd0aa43b	-0.03384803
250	0xbda6c107	-0.08142286
251	0x3cbd669d	0.023120219
252	0xbd365928	-0.04451862
253	0x3d4a4964	0.049386397
254	0xbd2491e2	-0.040178187
255	0x3d975419	0.07389087

predictor.bn2.weight f4 [50]
0	0x3f8dce36	1.1078556
1	0x3f8b38c3	1.0876697
2	0x3f8cfb9c	1.1014285
3	0x3f8d0a35	1.101874
4	0x3f8c82d9	1.0977432
5	0x3f8a834e	1.0821321
6	0x3f8efdb8	1.1171179
7	0x3f8ca970	1.0989208
8	0x3f892cc2	1.0716784
9	0x3f8da80f	1.1066912
10	0x3f92647c	1.1436915
11	0x3f8b190b	1.0867018
12	0x3f88e285	1.0694128
13	0x3f8c797d	1.0974575
14	0x3f911b71	1.13365
15	0x3f89c45a	1.0763047
16	0x3f864106	1.0488594
17	0x3f8b39e5	1.0877043
18	0x3f90638e	1.1280382
19	0x3f8db523	1.1070904
20	0x3f926918	1.1438322
21	0x3f8cefc6	1.1010673
22	0x3f8db1db	1.1069902
23	0x3f8bb63e	1.0914991
24	0x3f8ffe4b	1.1249479
25	0x3f8ba177	1.090865
26	0x3f8908f7	1.0705861
27	0x3f8be437	1.0929021
28	0x3f8c87fa	1.0978997
29	0x3f8e8e61	1.11372
30	0x3f8e166e	1.1100595
31	0x3f8a13a1	1.078724
32	0x3f8c28f0	1.0949993
33	0x3f8b506c	1.0883918
34	0x3f8dcc1b	1.1077913
35	0x3f81da22	1.0144694
36	0x3f8e7e8e	1.1132371
37	0x3f8fd113	1.1235679
38	0x3f8d32b1	1.1031095
39	0x3f8a95db	1.0826982
40	0x3f8c1e32	1.0946715
41	0x3f896436	1.0733707
42	0x3f913666	1.1344726
43	0x3f8e94b6	1.1139133
44	0x3f8ad9b0	1.0847683
45	0x3f87fa62	1.0623286
46	0x3f92e98c	1.1477523
47	0x3f900226	1.1250656
48	0x3f8cfe06	1.1015022
49	0x3f8ad91c	1.0847507

predictor.bn2.bias f4 [50]
0	0x3e0f0cdf	0.13969754
1	0x3e0c6870	0.13711715
2	0x3e0cb36f	0.13740323
3	0x3e0dbe8b	0.13842218
4	0x3e14731e	0.14497039
5	0x3e121c5c	0.1426863
6	0x3e21d4ab	0.15803783
7	0x3e176220	0.14783525
8	0x3e176e68	0.1478821
9	0x3e100a26	0.14066371
10	0x3e2375f1	0.1596296
11	0x3e0c0d35	0.13676913
12	0x3dfbfa32	0.1230358
13	0x3e01740f	0.12641929
14	0x3e1d1704	0.15340811
15	0x3e037bb8	0.12840164
16	0x3dfdbcb0	0.12389505
17	0x3e22f2af	0.15912889
18	0x3e23c8df	0.15994595
19	0x3e0b8948	0.13626587
20	0x3e309f81	0.17248346
21	0x3e1068ec	0.14102525
22	0x3e25ca01	0.1619034
23	0x3e060499	0.13087691
24	0x3e197d84	0.14989287
25	0x3de90837	0.1137852
26	0x3dda3c73	0.10656061
27	0x3e0fb174	0.14032537
28	0x3e130e7a	0.14360991
29	0x3e1e1ce6	0.15440711
30	0x3e1e9e7d	0.15490146
31	0x3dfa8dc3	0.1223407
32	0x3e100c74	0.1406725
33	0x3e0de561	0.13857032
34	0x3e09ef17	0.13470112
35	0x3e0bd073	0.13653736
36	0x3e0ce7c3	0.13760285
37	0x3e14d42d	0.14534064
38	0x3e16b033	0.14715652
39	0x3e16e586	0.14735994
40	0x3e09ff9a	0.1347641
41	0x3e007cca	0.12547603
42	0x3e0cadb1	0.13738133
43	0x3e18bd49	0.14915957
44	0x3e0d3932	0.1379135
45	0x3de992f9	0.11404986
46	0x3e1d4910	0.15359902
47	0x3e1c8105	0.15283592
48	0x3e0e3eda	0.13891163
49	0x3e04831e	0.12940642

predictor.bn2.running_mean f4 [50]
0	0xbf04e043	-0.51904696
1	0xbea3aa4a	-0.31965858
2	0xbe59b03a	-0.21258631
3	0xbed5b285	-0.41737762
4	0xbd9411cc	-0.07229957
5	0x3dd375df	0.103252165
6	0xbeed2402	-0.46316534
7	0xbe8ac7f2	-0.2710567
8	0xbd5ce239	-0.05392668
9	0xbed067a3	-0.4070407
10	0xbe20d2c4	-0.157054
11	0xbe4cac3d	-0.19987579
12	0x3e68bbc4	0.22727877
13	0xbe5187db	-0.20461981
14	0xbe806873	-0.25079688
15	0x3dc99266	0.098423764
16	0x3dfabdef	0.12243258
17	0xbef24254	-0.4731623
18	0xbecdabd0	-0.40170145
19	0xbee6685d	-0.45001498
20	0xbefed1bc	-0.4976939
21	0xbbd07d45	-0.0063625895
22	0xbe6f4e94	-0.23369819
23	0xbefb3fda	-0.49072152
24	0x3d21885a	0.039436676
25	0x3c0e5979	0.008688324
26	0xbeb45fa6	-0.35229224
27	0x3e57d5db	0.21077673
28	0xbdecd4c4	-0.11564019
29	0xbe673331	-0.22578122
30	0xbe8d9d41	-0.27659038
31	0xbe86f26c	-0.26356828
32	0xbe703299	-0.23456801
33	0xbc819739	-0.015819179
34	0xbf371c91	-0.71527964
35	0xbcd4e34f	-0.025987295
36	0xbe0d5073	-0.1380022
37	0xbdd5054b	-0.104014
38	0xbf05b308	-0.52226305
39	0xbf089a88	-0.53360796
40	0x3e92e2b6	0.28688592
41	0xbe53d52d	-0.20686789
42	0xbe45e4c9	-0.19325556
43	0xbebf44ae	-0.37357086
44	0xbd6d147c	-0.057880864
45	0x3e85638b	0.26052508
46	0x3d11ce6d	0.035597254
47	0xbe95344a	-0.29141456
48	0x3db1cc92	0.08681597
49	0xbe69de3e	-0.22838685

predictor.bn2.running_var f4 [50]
0	0x3ed79f00	0.42113495
1	0x3e2c5e16	0.16832766
2	0x3e3ee84a	0.18643299
3	0x3edce732	0.43145138
4	0x3ef5bd0d	0.47995797
5	0x3e64df55	0.2235082
6	0x3e8fb825	0.2807018
7	0x3eab249c	0.33426368
8	0x3e911d28	0.28342557
9	0x3e70c596	0.23512873
10	0x3ee3a235	0.44459692
11	0x3edc0f21	0.42980292
12	0x3ea604e7	0.32425615
13	0x3edbbd27	0.4291775
14	0x3ea81692	0.3282972
15	0x3e6383ac	0.22218198
16	0x3e9c167e	0.3048591
17	0x3e363aa6	0.1779581
18	0x3e5416c7	0.20711814
19	0x3e8d2dfc	0.27574146
20	0x3ef64038	0.4809587
21	0x3e88ba2e	0.26704544
22	0x3eb852de	0.36000723
23	0x3e0929b7	0.13394819
24	0x3effb3f2	0.49941975
25	0x3e936160	0.2878523
26	0x3e9d5809	0.30731228
27	0x3f22c1e2	0.6357709
28	0x3e80b5dd	0.2513875
29	0x3eb7f005	0.35925308
30	0x3e66f456	0.22554144
31	0x3e6fa419	0.23402442
32	0x3e75f9cb	0.2402107
33	0x3e88abfe	0.2669372
34	0x3f0e624c	0.5561874
35	0x3e78ec8e	0.24308988
36	0x3e47fab6	0.19529232
37	0x3f16521c	0.5871904
38	0x3e9fe23f	0.312273
39	0x3e5ef40b	0.21772783
40	0x3eb8ba33	0.3607956
41	0x3e330018	0.17480505
42	0x3f0cd72f	0.55015844
43	0x3e667d75	0.22508796
44	0x3eceebc3	0.40414247
45	0x3e4f53f5	0.20246871
46	0x3f02a34d	0.5103043
47	0x3eeb7172	0.4598499
48	0x3ee1ae66	0.44078368
49	0x3e7278b2	0.23678854

predictor.residual_proj.weight f4 [50, 52, 3, 3]
0	0xbcd3e37f	-0.025865315
1	0x3c327d94	0.010894198
2	0xbca6a7c5	-0.02034367
3	0x3b4fe520	0.0031722263
4	0x3d35b8cf	0.0443657
5	0xbd1007fd	-0.03516387
6	0x3c898feb	0.016792258
7	0x3b41558f	0.002950046
8	0xbd50ba4f	-0.050958928
9	0x3c665d8c	0.014060389
10	0xbbc55922	-0.0060225883
11	0xbcdad9a8	-0.026715115
12	0x3d21ca53	0.039499592
13	0x3d3a01ee	0.045411997
14	0xbc5b78e7	-0.013395525
15	0xbc4ab715	-0.012372752
16	0x3c22ebf9	0.009943956
17	0x3d0d727e	0.034533016
18	0x3d0be9f6	0.03415867
19	0x3b94c1b6	0.0045396937
20	0xbbb156ee	-0.005411974
21	0xbbeb5517	-0.0071817744
22	0x3d722986	0.05912163
23	0x3d0160d1	0.031586472
24	0xbcd15784	-0.025554426
25	0xbaa4dbab	-0.0012577673
26	0x3afa426e	0.0019093284
27	0xbc6f3a68	-0.0146013275
28	0xbc4b29ec	-0.012400132
29	0x3d12ae87	0.035810973
30	0xbabc7ef0	-0.0014381092
31	0x3c314f4a	0.010822127
32	0x3c9a83c1	0.018861653
33	0xbb6eee8f	-0.003645811
34	0x3d090a34	0.033456996
35	0x3d19f25d	0.03758465
36	0xbba60cd8	-0.005067449
37	0xbd14c200	-0.036317825
38	0xbce89ae2	-0.028394166
39	0x3c71d537	0.014760307
40	0xbc5cee0f	-0.013484492
41	0xbd18e260	-0.037325263
42	0xbd13b93f	-0.036065336
43	0x3bc876a1	0.0061176573
44	0xbbdbfcab	-0.00671347
45	0xbd3466e1	-0.044043425
46	0xbc40219c	-0.011726763
47	0xbafbb91b	-0.0019204946
48	0xbd16bc1e	-0.036800496
49	0x3d113ab3	0.03545637
50	0x3bbe4121	0.005806104
51	0xbcf5206d	-0.029922688
52	0xbd0b098d	-0.033944655
53	0x3d486719	0.048926447
54	0xbc88b7f1	-0.016689273
55	0xbae654d0	-0.0017572884
56	0x3d00fb58	0.0314897
57	0xbd0f5b25	-0.03499903
58	0x3d447fe6	0.047973536
59	0xbd52907f	-0.051407333
60	0x3ca5bc19	0.020231294
61	0xbcbce7fc	-0.023059838
62	0xbd3d0ff0	-0.046157777
63	0x3c55342e	0.013012929
64	0x3d02aaf3	0.03190131
65	0x3ce82129	0.028336124
66	0xbbcf575f	-0.006327554
67	0x3d5d85ec	0.054082796
68	0xbd1adac0	-0.037806273
69	0x39aec2a3	0.00033332882
70	0xbaa8a2a7	-0.0012865857
71	0xbd2ffa47	-0.042963292
72	0xba113df3	-0.0005540542
73	0xbc3f1a4c	-0.0116639845
74	0x3d29f89a	0.04149685
75	0xbca48419	-0.02008252
76	0xbc250ac3	-0.010073367
77	0x3b77f06f	0.0037832519
78	0xbca1497f	-0.019688366
79	0xbad872c0	-0.001651369
80	0x3d28e8e6	0.041237734
81	0x3d3439ac	0.044000313
82	0xbd0f10c3	-0.034928095
83	0xbc59e3b4	-0.013298918
84	0x3d1179ad	0.03551643
85	0xbd21e781	-0.03952742
86	0x3d253982	0.040338047
87	0xbca63e4d	-0.02029338
88	0xbd2fdc46	-0.04293468
89	0x3d4597a4	0.04824032
90	0x3ce478a5	0.027889559
91	0x3d044a90	0.03229767
92	0xbc5d5ebf	-0.013511359
93	0xba572dbd	-0.00082084147
94	0x3c6de12b	0.014519016
95	0xbd4bf146	-0.049790643
96	0xbc385044	-0.011249606
97	0x3d056e29	0.03257576
98	0x3b468edf	0.003029756
99	0xb9f724c2	-0.00047138898
100	0x3c063ae9	0.008192756
101	0x3b4a1f3e	0.0030841376
102	0x3c831f9c	0.016006283
103	0xbc5fc5b2	-0.013657974
104	0xbc56a276	-0.013100257
105	0x3cf017c0	0.0293082
106	0x3ccbe1ff	0.024888037
107	0xbd19031d	-0.037356485
108	0x3c2a32bb	0.010388072
109	0xbca50704	-0.020144947
110	0xbcd803b0	-0.026368946
111	0x3d28f7ec	0.04125206
112	0x3c73b36c	0.0148743205
113	0xbd12d307	-0.035845783
114	0x3bfca77f	0.007710397
115	0xbc9ac7fb	-0.018894186
116	0x3cdbb56e	0.02681991
117	0xbcc81a3e	-0.024426576
118	0xbc363f5a	-0.011123503
119	0x3d24594c	0.040124223
120	0x3a342b09	0.0006872868
121	0x39e5cf53	0.00043832752
122	0xbc673b79	-0.0141133005
123	0x3d10a82f	0.035316642
124	0x3c2f66a4	0.010705624
125	0xbc8b5876	-0.017009955
126	0x3cfc3785	0.030788193
127	0x3d1f383a	0.03887198
128	0xbbf53c25	-0.0074839764
129	0xbc844fad	-0.016151274
130	0x3bf2a2cb	0.0074046603
131	0xbca5b480	-0.02022767
132	0xbd35926e	-0.0443291
133	0x3ca0426d	0.019562924
134	0xbc2888a8	-0.010286488
135	0xbcae6c35	-0.021291832
136	0xbc2f7645	-0.01070935
137	0x3cb4b31a	0.022058059
138	0x3c8ce52a	0.017199118
139	0x3b8dec2c	0.0043311324
140	0xbd331dcb	-0.043729585
141	0x3d194716	0.03742131
142	0x3b7ab7df	0.0038256568
143	0xbd199bde	-0.037502162
144	0xba22f107	-0.00062157254
145	0xbd000d3f	-0.031262632
146	0x3d0dfaad	0.03466289
147	0x3c6628fe	0.014047859
148	0x3d859f6a	0.065245464
149	0x3b6b75df	0.003592841
150	0x3d0f8515	0.035039026
151	0xbc9a91ba	-0.018868316
152	0x3d16ae27	0.03678718
153	0x3c9c8931	0.019108387
154	0x3c987a7d	0.018613094
155	0x3c0667fd	0.008203504
156	0x3d4e5757	0.050376263
157	0x3a2f1c60	0.00066799484
158	0xbd15311f	-0.0364238
159	0x3d0cf27a	0.03441093
160	0xbcbd3f3b	-0.02310144
161	0x3c58e623	0.013238463
162	0xbc364f53	-0.011127311
163	0xbceab2d4	-0.028649725
164	0xbd024ee7	-0.03181353
165	0x3cd8a4d0	0.026445776
166	0x3b551fb1	0.003252011
167	0x3ca85fbd	0.020553464
168	0xbd10bab2	-0.035334297
169	0x3ca30413	0.019899404
170	0x3ae7f691	0.0017697384
171	0x3c31512e	0.010822577
172	0xbc3b5900	-0.0114347935
173	0xba452790	-0.0007520849
174	0xbbd19f80	-0.0063971877
175	0x3cc47dc7	0.023985757
176	0x3c9042e6	0.017610025
177	0xbc9bd56d	-0.019022668
178	0xbb9a2d1c	-0.0047050845
179	0x3d225fb8	0.039642066
180	0xbb8d9b69	-0.004321505
181	0xbce5236a	-0.027970988
182	0x3b42d8c0	0.0029731244
183	0x3bf127a0	0.00735946
184	0xbd31bd4a	-0.04339341
185	0x3d044657	0.032293644
186	0xbcbdc62d	-0.023165787
187	0xbcbbf852	-0.022945557
188	0x3b492812	0.003069405
189	0xbd023f61	-0.031798724
190	0xbb659299	-0.0035030006
191	0x3be96df5	0.0071237036
192	0xbca43e79	-0.02004932
193	0x3c788676	0.015168777
194	0x3d036c2a	0.032085575
195	0xbce4edc1	-0.027945401
196	0x3d082e91	0.033247534
197	0xbc31564a	-0.010823796
198	0xbc10d2a5	-0.008839284
199	0xbc955399	-0.018228339
200	0x3d01fbb9	0.031734202
201	0x3c984cfa	0.018591393
202	0x3d00edab	0.031476658
203	0x3d32f317	0.04368886
204	0x3d176166	0.03695812
205	0x3b9fe695	0.0048797824
206	0xbc670df0	-0.014102444
207	0xbc494e5b	-0.012286748
208	0x3c559e24	0.013038192
209	0x3cbbceea	0.022925813
210	0xbcc24299	-0.023713397
211	0x3cb843e7	0.022493316
212	0xbb1017a5	-0.002198675
213	0xbace184d	-0.0015723795
214	0xbc2b0566	-0.010438299
215	0xbc79b9c1	-0.015242041
216	0xbce7cf64	-0.028297134
217	0x3cd552ca	0.026040453
218	0x3c10bd8c	0.008834254
219	0xbca2335a	-0.019799877
220	0xbbdd61dd	-0.006756051
221	0xbcc6b5f7	-0.02425669
222	0x3b4149e8	0.0029493514
223	0xbba7de0d	-0.005122906
224	0xbc7c1305	-0.015385394
225	0x3c8c0d3f	0.01709616
226	0xbc5219ba	-0.0128235165
227	0x3c110e92	0.0088535715
228	0xbd289831	-0.041160766
229	0x3d2edfb4	0.04269381
230	0x3d2ca0dd	0.0421456
231	0x3ca10aa7	0.0196584
232	0x3b448a55	0.002998968
233	0xbc9647e7	-0.018344833
234	0x3ccd0521	0.02502686
235	0x3cdf3e49	0.02725138
236	0xbbb495d6	-0.005511026
237	0xbc9beb9c	-0.019033246
238	0x3d8333c3	0.06406357
239	0xbc8e3e5d	-0.017363722
240	0x3cadd21b	0.02121835
241	0x3cc60af5	0.024175147
242	0xbca77648	-0.020442143
243	0xbbed4876	-0.007241304
244	0x3c78eb43	0.0151928095
245	0x3cb7f73f	0.022456763
246	0x3c03bda0	0.008040816
247	0x3c881a71	0.01661417
248	0x3c6f0ba4	0.014590178
249	0xbd4e4ba4	-0.050365105
250	0xbccc117a	-0.024910677
251	0xbc2b94c9	-0.010472485
252	0x3d013ab1	0.031550113
253	0x3cf1539a	0.02945881
254	0x3d1d610f	0.03842264
255	0x3d298d0e	0.041394286
